…
scoring': {'_name': 'bleu', 'pad': 1, 'eos': 2, 'unk': 3}, 'bpe': None, 'tokenizer': None, 'ema': {'_name': None, 'store_ema': False, 'ema_decay': 0.9999, 'ema_start_update': 0, 'ema_seed_model': None, 'ema_update_freq': 1, 'ema_fp32': False}, 'simul_type': None}
2024-06-05 17:26:09 | INFO | fairseq.tasks.translation | [de] dictionary: 32768 types
2024-06-05 17:26:09 | INFO | fairseq.tasks.translation | [en] dictionary: 32768 types
2024-06-05 17:26:10 | INFO | fairseq_cli.train | TransformerLanguageModel(
  (decoder): TransformerDecoder(
    (dropout_module): FairseqDropout()
    (embed_tokens): Embedding(32768, 512, padding_idx=1)
    (embed_positions): SinusoidalPositionalEmbedding()
    (layers): ModuleList(
      (0-15): 16 x AdaptiveAttnTransformerDecoderLayerBase(
        (dropout_module): FairseqDropout()
        (self_attn): AdaptiveAttnMultiheadAttention(
          (dropout_module): FairseqDropout()
          (k_proj): Linear(in_features=512, out_features=512, bias=True)
          (v_proj): Linear(in_features=512, out_features=512, bias=True)
          (q_proj): Linear(in_features=512, out_features=512, bias=True)
          (out_proj): Linear(in_features=512, out_features=512, bias=True)
          (src_proj): Linear(in_features=512, out_features=512, bias=True)
          (tgt_proj): Linear(in_features=512, out_features=512, bias=True)
        )
        (activation_dropout_module): FairseqDropout()
        (self_attn_layer_norm): LayerNorm((512,), eps=1e-05, elementwise_affine=True)
        (fc1): Linear(in_features=512, out_features=2048, bias=True)
        (fc2): Linear(in_features=2048, out_features=512, bias=True)
        (final_layer_norm): LayerNorm((512,), eps=1e-05, elementwise_affine=True)
      )
    )
    (output_projection): Linear(in_features=512, out_features=32768, bias=False)
  )
)
2024-06-05 17:26:10 | INFO | fairseq_cli.train | task: TranslationTask
2024-06-05 17:26:10 | INFO | fairseq_cli.train | model: TransformerLanguageModel
2024-06-05 17:26:10 | INFO | fairseq_cli.train | criterion: LabelSmoothedCrossEntropyCriterion
2024-06-05 17:26:10 | INFO | fairseq_cli.train | num. shared model params: 75,620,352 (num. trained: 75,620,352)
…
